Assets/Results/Move To Target-499997.onnx (onnx, 74074 bytes, 7 tensors)

network_body._body_endoder.seq_layers.0.weight f4 [128, 4]
0	0xbd10b0d7	-0.035324898
1	0xbed7c07d	-0.42139044
2	0xbf082558	-0.5318198
3	0x3f742323	0.95366114
4	0x3eed0680	0.46294022
5	0x3f0e55b7	0.5559954
6	0xbf17b171	-0.5925513
7	0x3e7714ab	0.24128978
8	0x3f608661	0.87705046
9	0xbeb9f544	-0.36319935
10	0xbc0e8586	-0.008698827
11	0x3ef04d9d	0.46934214
12	0x3e263674	0.1623171
13	0x3e2922e7	0.1651722
14	0xbf05ee9f	-0.5231723
15	0x3f11a7ed	0.5689686
16	0xbe0bd5c3	-0.13655762
17	0x3e1761c7	0.14783393
18	0x3f229e4d	0.635228
19	0x3e405338	0.18781745
20	0xbd204b80	-0.039134502
21	0x3c399386	0.011326676
22	0x3d912934	0.07087937
23	0xbe22f1db	-0.15912573
24	0x3ef3f3f9	0.47647074
25	0x3e2d291f	0.16910218
26	0xbf886832	-1.0656798
27	0xbe5dbbef	-0.21653722
28	0x3ec87e45	0.39158836
29	0x3f1dc968	0.61635447
30	0x3f1d85ef	0.6153249
31	0xbec582e6	-0.3857643
32	0xbece8df1	-0.40342668
33	0x3f6504ce	0.89460456
34	0x3f1ca021	0.6118184
35	0xbe47989b	-0.19491808
36	0x3f555802	0.83337414
37	0xbec640c2	-0.3872128
38	0xbe8221a4	-0.2541629
39	0x3d8e9019	0.06961078
40	0xbdcc5b79	-0.099783845
41	0x3e5f8c47	0.21830855
42	0xbec40903	-0.38288125
43	0x3ec3159b	0.3810242
44	0x3ea3e0a3	0.32007322
45	0x3e2b1e11	0.16710688
46	0xbe83c89a	-0.25738984
47	0xbe87caa2	-0.26521784
48	0xbe717100	-0.23578262
49	0x3e97382f	0.29535052
50	0x3e118778	0.14211833
51	0xbdf775f7	-0.12083047
52	0x3f2b07eb	0.66808957
53	0x3ebea7ec	0.3723749
54	0xbec57839	-0.38568285
55	0xbe0ccb9d	-0.13749547
56	0xbe42b859	-0.19015636
57	0xbd9542dd	-0.07288144
58	0xbfaea1b5	-1.3643099
59	0x3ef3439a	0.47512513
60	0x3f4b4611	0.7940379
61	0x3eafaf99	0.34313658
62	0xbe1d2bb0	-0.15348697
63	0x3ec1881b	0.37799153
64	0xbee77341	-0.4520512
65	0xbef37a77	-0.4755437
66	0xbf008a98	-0.5021148
67	0x3eefedcf	0.4686112
68	0xbe0028ac	-0.12515515
69	0xbe5f433e	-0.21802995
70	0xbe014c36	-0.12626728
71	0x3f7bfea0	0.984354
72	0xbdbe947b	-0.09305664
73	0x3b72d61f	0.0037053896
74	0x3ef01ac7	0.4689543
75	0xbee778b6	-0.45209283
76	0x3e2a46cc	0.1662857
77	0x3eb931a8	0.36170697
78	0xbdb42afe	-0.087972626
79	0x3f226256	0.634313
80	0x3e270ead	0.16314192
81	0x3e941929	0.28925446
82	0x3eafeec3	0.34361848
83	0xbf38edcf	-0.7223787
84	0x3f365f3f	0.71239084
85	0xbefdd348	-0.49575257
86	0xbea6f31a	-0.32607347
87	0x3f128f24	0.57249665
88	0xbf436a86	-0.76334417
89	0xbee034b9	-0.43790224
90	0x3e0c981d	0.13729902
91	0xbd430bb9	-0.0476186
92	0x3f1f307d	0.6218336
93	0xbe6890c8	-0.2271148
94	0xbd75a2a3	-0.059969556
95	0xbedf0f1f	-0.43566224
96	0xbeb1b210	-0.34706163
97	0xbec7cf24	-0.39025223
98	0x3ee3504b	0.44397196
99	0xbe608095	-0.2192405
100	0xbe9b73d8	-0.3036182
101	0x3e80955f	0.2511396
102	0xbf35cffb	-0.7102048
103	0xbf2f83ff	-0.68560785
104	0xbe27e4e7	-0.16395913
105	0xbe31c8e0	-0.17361784
106	0x3d226f74	0.03965707
107	0x3eb64dd4	0.35606253
108	0xbea46f70	-0.3211627
109	0xbd1849fd	-0.037179936
110	0x3ea00ae5	0.31258312
111	0xbebddbcc	-0.37081754
112	0xbe73825b	-0.23780195
113	0xbd7aa166	-0.061189078
114	0x3db3d367	0.08780556
115	0x3d528de1	0.051404838
116	0x3e9af1c4	0.30262578
117	0x3dd0d87c	0.10197541
118	0x3ed8c8cf	0.42340705
119	0x3dc061de	0.09393667
120	0x3f3bf06b	0.73413724
121	0x3f483ba7	0.7821602
122	0xbe316b76	-0.1732615
123	0x3ea16429	0.3152173
124	0x3ed3c9e4	0.41364968
125	0x3f7c3761	0.98522
126	0x3ea2ae50	0.31773615
127	0xbd710ccf	-0.058850106
128	0xbe9d969f	-0.30778977
129	0xbeeffff9	-0.4687498
130	0xbe62a96e	-0.22134945
131	0x3e8ceeb2	0.2752586
132	0x3f1ae46b	0.6050479
133	0xbeba2887	-0.36359045
134	0xbf3a8f91	-0.72875315
135	0x3f46822d	0.7754238
136	0x3ef3badd	0.47603503
137	0xbe1b802f	-0.15185617
138	0x3d1f1f90	0.03884846
139	0xbf6e993c	-0.9320257
140	0x3f32cd3c	0.6984441
141	0xbf1bc62a	-0.6084925
142	0xbe9e2625	-0.30888477
143	0x3e93f130	0.2889495
144	0x3f16f76e	0.589713
145	0xbf231008	-0.63696337
146	0xbf4d3883	-0.80164355
147	0xbd4b34bc	-0.04961084
148	0x3f6a4d1d	0.91523916
149	0xbec873a4	-0.39150727
150	0x3deb5ca7	0.114922814
151	0x3db64051	0.08898986
152	0xbdbfada7	-0.093592934
153	0xbf32e21b	-0.6987626
154	0x3e7ce6c9	0.24697413
155	0x3f8123ac	1.0089011
156	0x3e33b8df	0.17550991
157	0xbe6885f0	-0.22707343
158	0x3d3b9f11	0.045805994
159	0xbe6dee9c	-0.23235554
160	0xbeaa773e	-0.332941
161	0x3f18dabb	0.59708756
162	0xbea6eced	-0.32602635
163	0xbe4c0d6b	-0.19926994
164	0x3d16b2cc	0.036791608
165	0x3e90612d	0.2819914
166	0x3dcd816a	0.100344494
167	0x3ee3f541	0.4452305
168	0x3f86708d	1.0503098
169	0xbf17804d	-0.59180146
170	0x3e43ff56	0.19140372
171	0xbf152719	-0.58262783
172	0x3ecdffe3	0.4023429
173	0xbeb04fd8	-0.34435916
174	0xbe843c2a	-0.25827152
175	0xbf6584fe	-0.89656055
176	0xbf811787	-1.0085305
177	0xbe52c8f4	-0.2058447
178	0xbf2fbb57	-0.6864523
179	0x3e2d2483	0.1690846
180	0xbe9f33ca	-0.310942
181	0xbca41c28	-0.020032957
182	0x3f9c0161	1.2187921
183	0x3e87840e	0.26467937
184	0xbea465e8	-0.32108998
185	0x3e6dd99f	0.23227547
186	0xbdea3e1f	-0.1143763
187	0xbeda1c72	-0.42599827
188	0x3f97ab57	1.1849164
189	0x3e94913b	0.29017052
190	0x3f74d0f8	0.9563136
191	0xbeb27e23	-0.3486186
192	0x3f16d50c	0.58918834
193	0x3e838a4d	0.25691453
194	0xbd4b61f7	-0.049653973
195	0x3e47abaa	0.19499078
196	0xbdef958e	-0.11698447
197	0xbe9c2565	-0.3049728
198	0x3e298f4d	0.16558571
199	0x3e813777	0.2523763
200	0xbf1a59b9	-0.60293156
201	0x3f6e6620	0.9312458
202	0x3f07f8de	0.53114116
203	0xbedfe77d	-0.437313
204	0x3b7106dd	0.0036777772
205	0xbf35a264	-0.70950913
206	0x3e0b5090	0.13604951
207	0xbd983daa	-0.074336365
208	0x3abee9fb	0.0014565581
209	0x3e841c57	0.25802872
210	0x3f289d65	0.65865165
211	0x3f25cbcd	0.647641
212	0x3f114353	0.56743354
213	0xbe24f333	-0.16108398
214	0x3e2e5536	0.17024693
215	0x3f8cd990	1.1003895
216	0xbf0c013e	-0.54689395
217	0xbe04b31d	-0.12958951
218	0xbaf0ad11	-0.0018362125
219	0xbed391b0	-0.41322088
220	0x3e99ad5f	0.30015084
221	0xbf0cf8af	-0.5506696
222	0xbe6568ca	-0.22403255
223	0x3e9a5768	0.3014481
224	0x3eda8ea1	0.42686942
225	0x3f29e002	0.66357434
226	0xbf88abb0	-1.0677395
227	0x3dc7b510	0.09751332
228	0x3d3a2ad7	0.04545101
229	0x3d3c7255	0.046007473
230	0x3f217fb5	0.6308549
231	0x3e975f8a	0.29565078
232	0x3e8eef58	0.2791698
233	0xbd60705e	-0.05479466
234	0xbf73fc28	-0.95306635
235	0xbf28b678	-0.65903425
236	0x3eef60d7	0.4675357
237	0xbe9e8d72	-0.3096729
238	0xbe048d7f	-0.12944601
239	0x3f11469d	0.5674837
240	0xbe6c682d	-0.23086615
241	0x3eb18497	0.3467147
242	0x3e9945c6	0.29936045
243	0xbf2fe0cd	-0.68702394
244	0xbedc0263	-0.4297057
245	0x3ee25493	0.4420515
246	0xbe8c9c10	-0.27462816
247	0xbe193318	-0.14960897
248	0xb9483723	-0.00019094026
249	0xbe722f3c	-0.23650831
250	0x3f664afc	0.8995817
251	0xbf550ce6	-0.83222806
252	0xbf20e618	-0.62851095
253	0x3f0dfd51	0.55464655
254	0x3bcbf0f8	0.006223794
255	0xbe866d0f	-0.2625508

network_body._body_endoder.seq_layers.0.bias f4 [128]
0	0xbd21548a	-0.039387263
1	0xbcc16d28	-0.02361162
2	0x3d526b1c	0.05137168
3	0xbd1b805e	-0.037964217
4	0x3d848883	0.0647135
5	0x3c4989db	0.012300934
6	0x3decd4c5	0.1156402
7	0xbd0da76b	-0.03458349
8	0x3db4d6f2	0.0883006
9	0xbcc44eae	-0.023963299
10	0xbda5d549	-0.080973215
11	0xbd19053a	-0.0373585
12	0x3d737914	0.05944164
13	0xbcb72853	-0.022358095
14	0x3dbe2e82	0.092862144
15	0xbd5ff330	-0.05467528
16	0xbd507427	-0.05089202
17	0x3cccef93	0.025016582
18	0x3ccd95fe	0.025095936
19	0xbc84ea0a	-0.01622488
20	0x3c82f050	0.01598373
21	0xbd468563	-0.04846705
22	0x3d741032	0.059585758
23	0x3cbf89b4	0.023381092
24	0x3d82e274	0.06390849
25	0xbd4130b9	-0.047165606
26	0x3d83d179	0.06436438
27	0x3cb62811	0.022235902
28	0x3d51db06	0.051234268
29	0x3ce08685	0.027407894
30	0xbd4119d7	-0.047143783
31	0x3bbaf5b1	0.005705558
32	0xbd462d2f	-0.048382934
33	0xbd1696e7	-0.036765005
34	0x3ab45069	0.0013756874
35	0x3c6e0a2e	0.014528794
36	0xbc320892	-0.010866301
37	0x3d267bf4	0.040645555
38	0x3d08e9b0	0.033425987
39	0x3c4df62f	0.012570902
40	0xbd1b7f98	-0.03796348
41	0x3d8a3f5c	0.06750366
42	0xbc85c4ef	-0.016329257
43	0xbc6c40a9	-0.014419713
44	0xbbc42dfb	-0.0059869266
45	0x3d80d043	0.06289723
46	0x3bd6f64c	0.0065601226
47	0x3d7da073	0.061920594
48	0xbd2c41cf	-0.042054947
49	0x3cc2a62a	0.023760874
50	0x3d423e5b	0.047422748
51	0x3d81d8b7	0.06340163
52	0x3d477f6a	0.048705496
53	0x3d90ed48	0.07076508
54	0xbce05ca4	-0.027387924
55	0xbd607576	-0.05479952
56	0x3c882c2a	0.016622622
57	0x3d685b19	0.056727502
58	0xbcea804a	-0.028625626
59	0xbc966c28	-0.01836212
60	0x3b3fd32c	0.0029270155
61	0xbd27a47f	-0.04092836
62	0x3d6521ff	0.055940624
63	0x3b652c2a	0.003496895
64	0xbc890e4e	-0.016730454
65	0x3d3a10c1	0.045426134
66	0xbce5f1d4	-0.028069414
67	0xbca7c6e8	-0.020480588
68	0x3d7a6c5e	0.061138503
69	0x3d12e67f	0.03586435
70	0xbd62f8d9	-0.0554131
71	0x3d72e194	0.05929716
72	0xbd5a06a4	-0.05322899
73	0xbd62e681	-0.055395607
74	0xbd3e125a	-0.04640422
75	0x3d0b992f	0.034081634
76	0x3d01e693	0.031714033
77	0xbd1b6b94	-0.03794439
78	0xbd452b62	-0.048137076
79	0x3b0ecda4	0.0021790052
80	0x3d87454d	0.06605015
81	0xbdca60c7	-0.0988174
82	0x3b87de85	0.0041463994
83	0xbd29feba	-0.04150269
84	0xbc859175	-0.01630471
85	0xbd1168db	-0.03550039
86	0xbd263240	-0.040575266
87	0x3c9b9eb5	0.018996576
88	0xbd221d7b	-0.039578896
89	0xbd412f8e	-0.047164492
90	0x3da2e773	0.07954302
91	0xbcc9a5a5	-0.024615118
92	0x3d3c465a	0.04596553
93	0x3d350d85	0.044202346
94	0x3cde0dab	0.027106127
95	0x3d47b040	0.04875207
96	0xbd37a4b9	-0.044834826
97	0xbd423b64	-0.04741992
98	0x3c5d0e1b	0.013492133
99	0x3d726f4b	0.05918817
100	0xbc930a1c	-0.017949156
101	0x3d832c94	0.06404987
102	0x3d36321e	0.04448139
103	0x3d8b00b9	0.06787247
104	0x3d121d40	0.035672426
105	0x3d963a3f	0.07335328
106	0xbc4e1f6f	-0.012580737
107	0x3d485786	0.048911594
108	0x3d3d852a	0.046269573
109	0x3d9dfe51	0.07714523
110	0x3befe58b	0.007321065
111	0x3b30ef8b	0.0026998247
112	0xbdc718d4	-0.097215325
113	0x3d90e0e7	0.07074147
114	0x3d90b5a6	0.07065897
115	0xbd02689b	-0.03183804
116	0xbdd42468	-0.103585064
117	0x3ba7e5c3	0.0051238253
118	0x3d8740b8	0.06604141
119	0x3d43ba0b	0.047784846
120	0xba25bb72	-0.0006322182
121	0x3d7a8eb8	0.061171263
122	0x3ceec990	0.029148847
123	0x3d9feb5d	0.07808564
124	0xbc24f87b	-0.010069008
125	0xbd6bb2b9	-0.05754349
126	0xbc0e4f75	-0.008685936
127	0xbcd9f2fc	-0.026605122

network_body._body_endoder.seq_layers.2.weight f4 [128, 128]
0	0xbdb42aa3	-0.08797195
1	0x3d0d42db	0.034487586
2	0x3d9509ca	0.07277258
3	0x3bc5c2b6	0.0060351742
4	0xbd11637a	-0.03549526
5	0x3db064d0	0.086129785
6	0xbda54fde	-0.08071874
7	0x3e138e81	0.1440983
8	0xbdb9b76f	-0.0906819
9	0x3d481f25	0.048857827
10	0xbd1cd2bc	-0.03828691
11	0x3d27298f	0.040811118
12	0xbd5138db	-0.051079612
13	0x3c901f92	0.017593179
14	0x3e831f3d	0.2560977
15	0x3dba4a56	0.0909621
16	0x3b816e5d	0.003949924
17	0xbab6c266	-0.0013943433
18	0x3c04fb77	0.0081165945
19	0xbdb6cf80	-0.08926296
20	0xbbbeb291	-0.0058196266
21	0x3dd831e3	0.1055639
22	0xbcae32a7	-0.021264387
23	0xbc3328f7	-0.01093506
24	0x3cf753a1	0.030191245
25	0x3d3dd832	0.046348758
26	0xbda8e876	-0.082474634
27	0x3d6da0b0	0.05801457
28	0xbc3d2604	-0.011544708
29	0x3e304654	0.17214328
30	0x3d7cf929	0.061761055
31	0x3def9532	0.116983786
32	0x3d3874d7	0.045033302
33	0x3cb5f7a7	0.022212816
34	0xbd959515	-0.07303826
35	0xbc4aba8a	-0.012373576
36	0x3d4e4b00	0.050364494
37	0x3d18cbf2	0.037303872
38	0x3bcf7ffa	0.0063323947
39	0xbd501baa	-0.050807633
40	0xbd711a45	-0.058862943
41	0x3e694e38	0.22783744
42	0x3d3ee193	0.046601843
43	0x3d2fbcc7	0.04290464
44	0xbd5da3cf	-0.0541113
45	0xbd8662e3	-0.0656183
46	0x3def5cf7	0.116876535
47	0xbe66b25e	-0.22528979
48	0x3db5cf8f	0.08877479
49	0xbe51d761	-0.20492317
50	0x3d32e15d	0.043671954
51	0xbd700d11	-0.05860621
52	0xbdac1b42	-0.084036365
53	0xbdc7a49e	-0.09748195
54	0x3d121c44	0.035671487
55	0xbdc54851	-0.09632934
56	0xbdcb6c19	-0.09932727
57	0x3d21718c	0.039414927
58	0x3b240347	0.0025026368
59	0xbd3add2b	-0.04562108
60	0x3c0ebfa9	0.0087126875
61	0x3e283b19	0.16428794
62	0x3db0548d	0.08609877
63	0xbc73f897	-0.014890811
64	0xbbfdafe3	-0.0077419146
65	0x3ddd2c29	0.107994385
66	0x3e1e49cb	0.15457837
67	0x3d69eb74	0.05710931
68	0xbe5b0dc1	-0.21391965
69	0xbe23c9b1	-0.15994908
70	0x3dce4a3e	0.10072754
71	0x3c834b93	0.016027248
72	0x3d4b37d1	0.049613778
73	0x3dc64738	0.09681553
74	0xbc91adeb	-0.017783126
75	0x3e695695	0.22786935
76	0xbd4d626d	-0.050142694
77	0x3d5e213b	0.05423091
78	0xbd3df943	-0.046380293
79	0x3e2cfddd	0.16893716
80	0xbe2aca48	-0.16678727
81	0xbd722b79	-0.05912349
82	0xbd1f12ad	-0.03883617
83	0xbcbb8195	-0.022888938
84	0x3d7acabf	0.06122851
85	0xbdd437f9	-0.103622384
86	0x3e04d326	0.12971172
87	0x3ca6a1ce	0.020340826
88	0xbdc2346f	-0.09482657
89	0x3da0b1dd	0.07846425
90	0x3d0fa327	0.035067704
91	0xbd26bc1e	-0.040706746
92	0x3d82c8b1	0.06385935
93	0x3e4609ba	0.19339648
94	0xbdfff963	-0.124987386
95	0x3c93c4e8	0.018038228
96	0x3e3bef1f	0.18352936
97	0x3c76e4b6	0.015069177
98	0xbb3084dd	-0.0026934661
99	0x3b10c2b5	0.002208871
100	0x3d04a2dd	0.03238188
101	0x3e2f7a0e	0.17136404
102	0x3da402ec	0.0800837
103	0xbc2598fa	-0.010107273
104	0x3dc83359	0.09775419
105	0xbe071415	-0.13191254
106	0x3e5d0986	0.21585664
107	0xbd848992	-0.06471552
108	0xbd20c683	-0.039251816
109	0x3e2c9689	0.168543
110	0x3db5ae6b	0.08871158
111	0x3d3aed86	0.045636676
112	0x3cdcdb8a	0.026960153
113	0x3e6bfff3	0.23046856
114	0x3d9614f1	0.07328213
115	0xbdb1c636	-0.08680384
116	0x3c8e5b7e	0.017377611
117	0xbd4967b7	-0.049171176
118	0xbd22c2c9	-0.039736543
119	0x3d1d3c26	0.03838744
120	0xbe060e4b	-0.1309139
121	0xbd05bd4b	-0.032651227
122	0x3e364443	0.17799477
123	0x3e3f39ca	0.18674389
124	0xbcf01847	-0.029308451
125	0x3c82e808	0.015979782
126	0xbde9f1cb	-0.114230715
127	0x3c9df82e	0.01928338
128	0xbc71a4a8	-0.01474873
129	0xbd87fb30	-0.06639707
130	0x3d3d18c0	0.04616618
131	0xbddb91af	-0.10721146
132	0xbd7d8a2c	-0.06189935
133	0xbd8afbf4	-0.067863375
134	0x3d85372f	0.06504666
135	0xbd65bafb	-0.05608652
136	0x3d1dd9c8	0.03853777
137	0xbd57423b	-0.052553397
138	0x3b62393a	0.0034518973
139	0xbc65fa6c	-0.014036756
140	0x3ca1d622	0.019755427
141	0x3d5f3b38	0.054499835
142	0xbd8539aa	-0.06505139
143	0xbc1711f0	-0.009220585
144	0xbd64a654	-0.055822685
145	0xbd9b7593	-0.07590785
146	0x3d626d9f	0.055280324
147	0x3e16d755	0.1473058
148	0x3dab61e8	0.083682835
149	0x3dbb5e03	0.09148791
150	0xbd2fdd5f	-0.042935725
151	0x3e008e42	0.12554267
152	0xbe124b0c	-0.1428644
153	0xbd1226f8	-0.035681695
154	0xbd45bc32	-0.04827518
155	0x3cb6d2ee	0.022317376
156	0x3c9e6adf	0.01933807
157	0xbd9dfc03	-0.07714083
158	0xbe2c7901	-0.16843034
159	0xbd1dbd0f	-0.03851038
160	0x3d47335c	0.048632964
161	0x3ce5ca68	0.028050616
162	0xbce44a19	-0.027867364
163	0xbd8d32f1	-0.06894482
164	0xbd882a96	-0.066487476
165	0x3d5b3667	0.05351868
166	0x3b24286b	0.0025048505
167	0x3d51b8a4	0.051201478
168	0x3e300336	0.17188725
169	0x3b88e9ca	0.0041782605
170	0xbc8f6bb2	-0.017507408
171	0x3d806251	0.06268752
172	0xbd3126ed	-0.043250013
173	0x3c992d70	0.018698424
174	0x3d4f6f95	0.050643522
175	0xbd9c822d	-0.076420166
176	0x3d3314d3	0.04372103
177	0xbc8cf83e	-0.017208215
178	0xbe6eb960	-0.23312902
179	0xbd1a7ae5	-0.037714858
180	0x3cc089a5	0.023503134
181	0xbda88718	-0.08228892
182	0xbcde8a4f	-0.02716556
183	0xbd5c9eb4	-0.05386229
184	0x3c80f7b1	0.015743108
185	0xbe1353ec	-0.14387482
186	0x3e1651fd	0.14679714
187	0xbc89ac19	-0.016805695
188	0xbd085e1f	-0.033292886
189	0xbdb40c93	-0.08791461
190	0x3c291bbc	0.010321554
191	0xbcc9524a	-0.024575371
192	0xbe85c9ab	-0.26130423
193	0x3d858876	0.065201685
194	0xbe14503b	-0.1448373
195	0x3db43436	0.08799021
196	0xbe06a289	-0.1314794
197	0xbd56fa33	-0.052484702
198	0xbdc5317e	-0.096285805
199	0xbd13fe7c	-0.036131367
200	0x3b1ee451	0.0024244974
201	0x3d4f7ff6	0.050659142
202	0xbc78a9ce	-0.015177203
203	0xbdf0bd56	-0.11754863
204	0xbd61bdf2	-0.055112787
205	0x3b864768	0.0040978678
206	0xbca0f9b3	-0.019650316
207	0x3d226c13	0.03965385
208	0xbbffa4b3	-0.007801616
209	0x3d01fc2a	0.031734623
210	0xbdee7e93	-0.11645236
211	0xbd5dc493	-0.054142546
212	0xbdf4d477	-0.11954587
213	0x3cf8e061	0.03038043
214	0xbd36f1c0	-0.044664145
215	0xbd1c1187	-0.038102653
216	0x3df5a152	0.1199366
217	0x3ca7f83a	0.020504106
218	0xbe1983d0	-0.14991689
219	0xbd235994	-0.03988035
220	0xbc7794ca	-0.015111158
221	0x3db05c4b	0.086113535
222	0xbd461edd	-0.048369277
223	0x3b8e11be	0.004335611
224	0x3d5cec59	0.053936336
225	0x3bc896e4	0.006121503
226	0x3d6ced89	0.05784372
227	0x3e15ff56	0.14648184
228	0x3cc215d5	0.023692051
229	0xbd7594e7	-0.059956457
230	0x3dc762e2	0.09735657
231	0xbdc950fa	-0.09829898
232	0xbe07fb04	-0.13279349
233	0xbd9676a4	-0.07346848
234	0x3d0ee415	0.034885485
235	0xbaf572ff	-0.0018726288
236	0xbe2aae96	-0.16668162
237	0xbd0a08c3	-0.033699762
238	0x3e24bf7a	0.16088668
239	0xbd01440f	-0.031559046
240	0x3df54e66	0.11977844
241	0x3d405097	0.046951856
242	0xbc7e9c22	-0.015540155
243	0x3dd195ae	0.10233627
244	0xbdca5c2f	-0.09880864
245	0xbd6d2ee4	-0.057906047
246	0xbbb1a8fe	-0.0054217568
247	0x3df7d100	0.121004105
248	0x3e3bade1	0.18328048
249	0x3d372295	0.044710714
250	0xbd482b05	-0.04886915
251	0xbd827245	-0.063694514
252	0x3da1e810	0.079055905
253	0xbdbb1542	-0.09134914
254	0xbd3e53e1	-0.046466712
255	0xbc4644c5	-0.012101357

network_body._body_endoder.seq_layers.2.bias f4 [128]
0	0xbba2694c	-0.0049564
1	0xbc8c5bc7	-0.017133607
2	0xbc8031f9	-0.015648829
3	0x3d92b990	0.071642995
4	0x3d94c548	0.07264191
5	0x3d77f99a	0.060540773
6	0x3d96b081	0.07357884
7	0xbd46f3e9	-0.048572455
8	0xbce05dcb	-0.027388474
9	0x3d612da3	0.054975163
10	0x3d6e170c	0.058127448
11	0xbcb6077a	-0.022220362
12	0x3cbe9314	0.023263492
13	0x3c3acde2	0.011401625
14	0xbd19a7e3	-0.037513625
15	0x3ca94e3e	0.020667192
16	0x3d801b17	0.06255167
17	0xbd2dd2a1	-0.0424372
18	0x3d9405a6	0.0722764
19	0xbd2adcfd	-0.041714657
20	0xbb883be0	-0.0041575283
21	0xbd047acd	-0.032343674
22	0xbc6f73ef	-0.014615043
23	0xbd19e83d	-0.037574995
24	0x3b5170f8	0.0031958204
25	0x3d4acf98	0.049514383
26	0x3d584a4e	0.052805237
27	0xbc8a6cd0	-0.016897589
28	0x3d852e28	0.06502944
29	0x3d7ece9e	0.062208764
30	0x3d97e767	0.07417183
31	0x3d4a7bd8	0.049434513
32	0x3c3e4f5e	0.011615602
33	0x3cb14001	0.021636965
34	0x3d774821	0.06037152
35	0xbd2fac79	-0.042889092
36	0xbd130888	-0.035896808
37	0x3d8473fb	0.06467434
38	0xbc0436d6	-0.0080697145
39	0xbc4ff783	-0.012693289
40	0x3d9552c9	0.07291181
41	0xbcd8ffd8	-0.026489183
42	0xbd20c8d9	-0.039254043
43	0xbcaca28a	-0.021073598
44	0x3d9448ff	0.072404854
45	0xbd10741a	-0.035266973
46	0xbd0f674c	-0.03501062
47	0xbc1a6d17	-0.009425423
48	0xbbc5bf05	-0.006034734
49	0xbd265ed2	-0.04061777
50	0xbd3875a5	-0.04503407
51	0x3b2ae244	0.0026074806
52	0x3d8de16b	0.06927761
53	0xbc071c90	-0.008246556
54	0x3d82d9bc	0.06389186
55	0x3d6c529e	0.057695977
56	0xbd2c9200	-0.042131424
57	0x3d77bb0f	0.060481127
58	0x3d72b8cd	0.05925827
59	0x3c8b4e73	0.017005181
60	0xbc84d951	-0.016216906
61	0x3d2e0138	0.04248163
62	0x3d6b6a14	0.05747421
63	0x3d89661a	0.067089275
64	0x3d6d458f	0.057927664
65	0xbad91520	-0.0016562082
66	0x3d4e56d2	0.050375767
67	0xbd302016	-0.04299935
68	0x3d8ccaca	0.068746164
69	0xbd2ddf9e	-0.042449586
70	0xbc30c3f6	-0.010788908
71	0xbbe3e4d0	-0.006954767
72	0xbbbdddb3	-0.005794251
73	0xbcb5cb15	-0.022191564
74	0xbbcd84c5	-0.006271931
75	0x3d772149	0.060334478
76	0x3d4a9f3b	0.04946826
77	0x3d418519	0.047246072
78	0xbd169170	-0.036759794
79	0x3d684ec0	0.056715727
80	0x3cda68db	0.026661327
81	0x3c99bc04	0.01876641
82	0xbb4b127c	-0.003098636
83	0x3d8b53ee	0.06803118
84	0x3d6985cf	0.057012375
85	0xbbff8a32	-0.0077984566
86	0xbc6f5d10	-0.01460959
87	0x3d96b2f4	0.07358351
88	0xbd2bddb8	-0.041959494
89	0x3c082c3d	0.0083113285
90	0xbc66ca34	-0.014086295
91	0x3d854ba9	0.06508572
92	0x3d1c1b69	0.038112078
93	0x3d823a0c	0.06358728
94	0xbcf1e11b	-0.029526284
95	0x3d687d70	0.05676025
96	0x3d88651d	0.06659911
97	0xbd4499e8	-0.04799834
98	0xbd34c794	-0.044135645
99	0x3d592b1d	0.05301963
100	0xbc4831f5	-0.012218942
101	0x3d7ce62f	0.061742958
102	0x3d2214b2	0.039570518
103	0x3da2cd35	0.079492964
104	0x3d89c070	0.06726158
105	0x3c1a4d02	0.009417774
106	0x3c96b461	0.018396558
107	0xbced3c37	-0.028959377
108	0x3d7a0132	0.061036296
109	0x3cd7eefe	0.026359078
110	0x3d39fa7b	0.045404892
111	0x3d90f0ca	0.07077177
112	0x3c0c31c1	0.008556784
113	0xbc9bf307	-0.019036783
114	0xbd086bf3	-0.033306073
115	0xbc5e35b9	-0.013562613
116	0x3d20e30e	0.039279036
117	0x3d556dc8	0.05210665
118	0xbcf43210	-0.029809028
119	0xbc4466fc	-0.011987444
120	0x3d71b0bb	0.059006434
121	0x3cad6b3e	0.021169301
122	0xbd279e94	-0.040922716
123	0x3cdbec97	0.026846213
124	0xbbd44d52	-0.006478944
125	0xbcef105b	-0.029182604
126	0x3d81d9d1	0.06340373
127	0xbd2b1cae	-0.041775398

action_model._continuous_distribution.log_sigma f4 [1, 2]
0	0xbd85a5ca	-0.065257624
1	0xbd13533b	-0.035968047

action_model._continuous_distribution.mu.weight f4 [2, 128]
0	0xbab77178	-0.0013995608
1	0xbd8969af	-0.06709611
2	0xbce6316d	-0.02809974
3	0x3d512197	0.051057424
4	0x3d66cca6	0.05634751
5	0x3d066fb9	0.03282139
6	0x3d33fb7a	0.043941
7	0xbcfdb92f	-0.030972091
8	0xbd66c367	-0.056338694
9	0x3d04d190	0.032426417
10	0x3cd64b2a	0.026158888
11	0xbd4e0f86	-0.050307773
12	0x3c39bf35	0.011337091
13	0x3b86b166	0.004110503
14	0xbcaf1dc7	-0.021376504
15	0x3c6e1cf9	0.014533275
16	0x3d16dba8	0.036830574
17	0xbd7a1aeb	-0.061060827
18	0x3d57fc4e	0.05273085
19	0xbd3bf958	-0.04589209
20	0xbd23e0fb	-0.04000948
21	0xbd92faf0	-0.07176769
22	0xbdc2d7c6	-0.09513812
23	0xbd53e517	-0.05173215
24	0xbd8711da	-0.06595202
25	0x3ced4e75	0.028968075
26	0x3d65c2fe	0.056094162
27	0xbd59019a	-0.052980043
28	0x3d17aea8	0.0370318
29	0x3ce15a9f	0.027509032
30	0x3d731117	0.05934247
31	0x3cb77917	0.022396607
32	0x3c317bbb	0.010832722
33	0x3bd3b326	0.006460565
34	0x3d8c7813	0.0685884
35	0xbd42a721	-0.047522668
36	0xbd2c9bf7	-0.042140927
37	0x3d2ca273	0.04214711
38	0xbd5aeece	-0.0534504
39	0xbd0d8d70	-0.034558713
40	0x3cb2dce9	0.021833854
41	0xbd89a9c6	-0.06721835
42	0xbd409133	-0.047013473
43	0xbd95de33	-0.07317772
44	0x3d6cc0ac	0.057800934
45	0xbd1acbf7	-0.037792172
46	0xbd3c6bef	-0.04600137
47	0xbd94585e	-0.07243417
48	0xbdcadae0	-0.09905028
49	0xbd03cf22	-0.03217996
50	0xbcfa5912	-0.03056005
51	0xbd89f533	-0.06736221
52	0x3d31b6b0	0.043387115
53	0xbdafd29a	-0.08585091
54	0x3d77e6cf	0.06052285
55	0x3d421586	0.047383808
56	0xbd2336d6	-0.039847218
57	0x3c93d0bb	0.018043866
58	0x3cf01603	0.029307371
59	0x3c3c1f51	0.011482076
60	0xbb7e514d	-0.0038805783
61	0x3ca1a297	0.01973085
62	0x3d0abe15	0.033872683
63	0x3ca8b965	0.020596216
64	0x3d262c7c	0.040569767
65	0xbda5b067	-0.08090287
66	0x3cc7146a	0.024301726
67	0xbd8995ea	-0.06718047
68	0x3d919391	0.07108224
69	0xbd1a52d2	-0.03767664
70	0xbd6f5bbb	-0.05843709
71	0x3bdee033	0.006801629
72	0xbda9d5fe	-0.08292769
73	0xbd9e487f	-0.07728671
74	0xbd4bb6a5	-0.04973473
75	0x3d3f0964	0.046639815
76	0x3d102a07	0.03519633
77	0x3cc668e6	0.024219941
78	0xbd966b08	-0.07344633
79	0xb9781f96	-0.0002366289
80	0xbaad2780	-0.0013210624
81	0x3bd6d241	0.006555826
82	0xbaf53288	-0.0018707076
83	0x3cee449c	0.02908545
84	0x3d60a9e9	0.05484954
85	0xbd9724f5	-0.07380096
86	0xbd9ca75c	-0.07649109
87	0x3d53d0c5	0.05171277
88	0xbd1a86ad	-0.037726093
89	0x3b20532f	0.0024463644
90	0xbdc0adb5	-0.09408132
91	0x3d7de6eb	0.0619878
92	0x3c94db0f	0.018170862
93	0x3d38f499	0.04515514
94	0xbd8bd926	-0.06828527
95	0x3cfee949	0.031117098
96	0x3d26969c	0.040670976
97	0xbd16b144	-0.036790147
98	0xbd74882c	-0.059700176
99	0x3d0977ec	0.033561632
100	0xbc8e04e5	-0.017336318
101	0x3d19cdb7	0.0375497
102	0x3d05dc77	0.032680955
103	0x3d3cd772	0.046103902
104	0x3cc79529	0.024363117
105	0xbc0908b9	-0.008363896
106	0xbbffed8c	-0.0078103
107	0xbd8dc285	-0.06921867
108	0x3c942888	0.018085733
109	0x3cbf0080	0.023315668
110	0x3cb8cf0a	0.022559661
111	0x3d75e46d	0.060032297
112	0xbc143fca	-0.009048412
113	0xbd823908	-0.06358534
114	0xbd4cf7bb	-0.05004094
115	0xbdb0534e	-0.08609639
116	0x3cb6a2da	0.02229445
117	0x3cb4e848	0.022083417
118	0xbd3283fb	-0.043582898
119	0xbdaea6f2	-0.08527936
120	0x3c8309ef	0.015995948
121	0xbc137ecb	-0.009002398
122	0xbc985c4a	-0.018598694
123	0x3c8334ee	0.01601645
124	0xbac5d060	-0.0015092008
125	0xbd94d898	-0.072678745
126	0x3d0ab745	0.033866186
127	0xbd0df684	-0.034658924
128	0xbcd08d43	-0.025457984
129	0xbcc4e674	-0.02403567
130	0x3cbbf132	0.02294216
131	0x3ac6f54c	0.0015179305
132	0x3c7498c7	0.014929003
133	0xbc0943e4	-0.008378003
134	0xbc515876	-0.012777438
135	0x3c3c28e7	0.011484361
136	0xbbccf12d	-0.0062543363
137	0x3d4f2e20	0.050581098
138	0x3d45ba74	0.04827352
139	0xbd7cec3b	-0.061748724
140	0x3d622ed8	0.055220455
141	0xbd10993a	-0.03530238
142	0xbc9d6e7b	-0.01921772
143	0xbce56f0d	-0.028007055
144	0x3c853b60	0.016263664
145	0x3cad868e	0.021182325
146	0xbcff9ff2	-0.031204198
147	0x3c863616	0.016383212
148	0x3d030095	0.031982977
149	0xbbf59b46	-0.0074953167
150	0xbd03945f	-0.03212392
151	0xbc920310	-0.017823726
152	0xbd42f975	-0.047601182
153	0xbc823037	-0.015892131
154	0x3c5472cf	0.012966826
155	0xbd874937	-0.066057615
156	0xbca52333	-0.020158386
157	0x3d8bbc42	0.06823017
158	0xbc0ef313	-0.008724946
159	0xbd566d85	-0.05235054
160	0xbd176894	-0.036964968
161	0xbd5b0857	-0.05347475
162	0x3cd5cb6f	0.026097981
163	0x3c03bb7f	0.008040308
164	0x3c17535a	0.009236181
165	0xbd45e523	-0.048314225
166	0x3cfecb0a	0.031102676
167	0x3c4cabaf	0.012492104
168	0xbd7dae5d	-0.061933864
169	0xbc041f9e	-0.008064179
170	0xbc285eb7	-0.010276488
171	0x3a003cce	0.0004891873
172	0xbcb20db5	-0.021735052
173	0xbd258ec4	-0.040419355
174	0xbd0cbcf1	-0.034359876
175	0x3d4f2475	0.050571878
176	0x3a80026d	0.0009766348
177	0xbb863645	-0.004095825
178	0x3a9ff761	0.0012204462
179	0x3d81182f	0.06303441
180	0x3d692fb7	0.05693027
181	0xbc8e847d	-0.01739716
182	0xbb73aba2	-0.0037181159
183	0x3c792b76	0.015208116
184	0x3a86559d	0.0010248903
185	0x3d8514b0	0.064980865
186	0x3d6c438d	0.05768161
187	0xbcf24993	-0.029576099
188	0xbcbdc2fa	-0.023164261
189	0xbb11609c	-0.0022182828
190	0x3d717113	0.058945727
191	0x3dbaefa6	0.091277406
192	0x3cdba5f6	0.026812535
193	0xbce269fc	-0.027638428
194	0xbd9d4f74	-0.0768117
195	0xbbb123e7	-0.005405891
196	0xbd151392	-0.036395617
197	0xbca4a131	-0.020096393
198	0x3d8691d6	0.06570785
199	0xbd15f4ba	-0.036610343
200	0x3ce5d888	0.028057352
201	0xbd37c5c5	-0.044866342
202	0xbd50de14	-0.05099304
203	0xbb5a2e11	-0.0033291618
204	0x3cd34f7b	0.025794735
205	0xbd89a8aa	-0.06721623
206	0xbcbfa61c	-0.023394637
207	0x3dae893d	0.0852227
208	0x3db73774	0.08946124
209	0x3d1d1bd4	0.038356617
210	0x3c9ecae1	0.01938385
211	0x3de794bf	0.11307668
212	0x3d29c70e	0.0414496
213	0x3c592673	0.013253796
214	0x3ca0ca8f	0.019627837
215	0xbd12c427	-0.035831597
216	0xbc443bb8	-0.011977129
217	0xbce17225	-0.027520249
218	0x3bce0801	0.0062875752
219	0xbd3fdfab	-0.046844166
220	0x3cda88bb	0.026676526
221	0xbc318488	-0.010834821
222	0xbc9d027e	-0.019166227
223	0x3b6d0e37	0.0036171803
224	0x3d1533e3	0.036426436
225	0x3c43c67f	0.011949181
226	0x3abc2b7c	0.0014356221
227	0xbd844887	-0.06459146
228	0xbcfb1135	-0.030647853
229	0xbc1165e3	-0.008874389
230	0xbd386d68	-0.045026213
231	0xbc3a2d60	-0.011363357
232	0xbcbd9f3e	-0.023147222
233	0x3d1636c0	0.036673307
234	0xbd7cc960	-0.061715484
235	0x3d1d8f50	0.03846675
236	0x3d1e3710	0.03862673
237	0xbd8f827e	-0.07007311
238	0x3c83cb41	0.01608813
239	0x3d07d150	0.0331586
240	0x3d56352b	0.0522968
241	0xbda8d870	-0.08244407
242	0xbd289c76	-0.041164838
243	0xbcec0c8f	-0.028814582
244	0x3ced52ea	0.0289702
245	0x3d67456d	0.056462694
246	0x3c9d77c5	0.01922215
247	0xba89b740	-0.0010506883
248	0xbd3dd7fa	-0.04634855
249	0x3cf20eb3	0.029548025
250	0x3b92a27e	0.004474937
251	0xbd42c2c0	-0.04754901
252	0x3cccaf76	0.02498601
253	0xbcc93aec	-0.024564229
254	0x3d06ae6f	0.032881197
255	0x3bc761ec	0.0060846712

action_model._continuous_distribution.mu.bias f4 [2]
0	0x3d67c711	0.05658633
1	0x3c0e9ed7	0.008704863
